…
WARNING:tensorflow:From C:\Users\walte\AppData\Local\Programs\Python\Python311\Lib\site-packages\keras\src\layers\normalization\batch_normalization.py:979: The name tf.nn.fused_batch_norm is deprecated. Please
use tf.compat.v1.nn.fused_batch_norm instead.

Model: "model"
__________________________________________________________________________________________________
 Layer (type)                Output Shape                 Param #   Connected to
==================================================================================================
 input_1 (InputLayer)        [(None, 224, 224, 3)]        0         []

 rescaling (Rescaling)       (None, 224, 224, 3)          0         ['input_1[0][0]']

 normalization (Normalizati  (None, 224, 224, 3)          7         ['rescaling[0][0]']
 on)

 rescaling_1 (Rescaling)     (None, 224, 224, 3)          0         ['normalization[0][0]']

 stem_conv_pad (ZeroPadding  (None, 225, 225, 3)          0         ['rescaling_1[0][0]']
 2D)

 stem_conv (Conv2D)          (None, 112, 112, 56)         1512      ['stem_conv_pad[0][0]']

 stem_bn (BatchNormalizatio  (None, 112, 112, 56)         224       ['stem_conv[0][0]']
 n)

 stem_activation (Activatio  (None, 112, 112, 56)         0         ['stem_bn[0][0]']
 n)

 block1a_dwconv (DepthwiseC  (None, 112, 112, 56)         504       ['stem_activation[0][0]']
 onv2D)

 block1a_bn (BatchNormaliza  (None, 112, 112, 56)         224       ['block1a_dwconv[0][0]']
 tion)

 block1a_activation (Activa  (None, 112, 112, 56)         0         ['block1a_bn[0][0]']
 tion)

 block1a_se_squeeze (Global  (None, 56)                   0         ['block1a_activation[0][0]']
 AveragePooling2D)

 block1a_se_reshape (Reshap  (None, 1, 1, 56)             0         ['block1a_se_squeeze[0][0]']
 e)

 block1a_se_reduce (Conv2D)  (None, 1, 1, 14)             798       ['block1a_se_reshape[0][0]']

 block1a_se_expand (Conv2D)  (None, 1, 1, 56)             840       ['block1a_se_reduce[0][0]']

 block1a_se_excite (Multipl  (None, 112, 112, 56)         0         ['block1a_activation[0][0]',
 y)                                                                  'block1a_se_expand[0][0]']

 block1a_project_conv (Conv  (None, 112, 112, 32)         1792      ['block1a_se_excite[0][0]']
 2D)

 block1a_project_bn (BatchN  (None, 112, 112, 32)         128       ['block1a_project_conv[0][0]']
 ormalization)

 block1b_dwconv (DepthwiseC  (None, 112, 112, 32)         288       ['block1a_project_bn[0][0]']
 onv2D)

 block1b_bn (BatchNormaliza  (None, 112, 112, 32)         128       ['block1b_dwconv[0][0]']
 tion)

 block1b_activation (Activa  (None, 112, 112, 32)         0         ['block1b_bn[0][0]']
 tion)

 block1b_se_squeeze (Global  (None, 32)                   0         ['block1b_activation[0][0]']
 AveragePooling2D)

 block1b_se_reshape (Reshap  (None, 1, 1, 32)             0         ['block1b_se_squeeze[0][0]']
 e)

 block1b_se_reduce (Conv2D)  (None, 1, 1, 8)              264       ['block1b_se_reshape[0][0]']

 block1b_se_expand (Conv2D)  (None, 1, 1, 32)             288       ['block1b_se_reduce[0][0]']

 block1b_se_excite (Multipl  (None, 112, 112, 32)         0         ['block1b_activation[0][0]',
 y)                                                                  'block1b_se_expand[0][0]']

 block1b_project_conv (Conv  (None, 112, 112, 32)         1024      ['block1b_se_excite[0][0]']
 2D)

 block1b_project_bn (BatchN  (None, 112, 112, 32)         128       ['block1b_project_conv[0][0]']
 ormalization)

 block1b_drop (Dropout)      (None, 112, 112, 32)         0         ['block1b_project_bn[0][0]']

 block1b_add (Add)           (None, 112, 112, 32)         0         ['block1b_drop[0][0]',
                                                                     'block1a_project_bn[0][0]']

 block1c_dwconv (DepthwiseC  (None, 112, 112, 32)         288       ['block1b_add[0][0]']
 onv2D)

 block1c_bn (BatchNormaliza  (None, 112, 112, 32)         128       ['block1c_dwconv[0][0]']
 tion)

 block1c_activation (Activa  (None, 112, 112, 32)         0         ['block1c_bn[0][0]']
 tion)

 block1c_se_squeeze (Global  (None, 32)                   0         ['block1c_activation[0][0]']
 AveragePooling2D)

 block1c_se_reshape (Reshap  (None, 1, 1, 32)             0         ['block1c_se_squeeze[0][0]']
 e)

 block1c_se_reduce (Conv2D)  (None, 1, 1, 8)              264       ['block1c_se_reshape[0][0]']

 block1c_se_expand (Conv2D)  (None, 1, 1, 32)             288       ['block1c_se_reduce[0][0]']

 block1c_se_excite (Multipl  (None, 112, 112, 32)         0         ['block1c_activation[0][0]',
 y)                                                                  'block1c_se_expand[0][0]']

 block1c_project_conv (Conv  (None, 112, 112, 32)         1024      ['block1c_se_excite[0][0]']
 2D)

 block1c_project_bn (BatchN  (None, 112, 112, 32)         128       ['block1c_project_conv[0][0]']
 ormalization)

 block1c_drop (Dropout)      (None, 112, 112, 32)         0         ['block1c_project_bn[0][0]']

 block1c_add (Add)           (None, 112, 112, 32)         0         ['block1c_drop[0][0]',
                                                                     'block1b_add[0][0]']

 block2a_expand_conv (Conv2  (None, 112, 112, 192)        6144      ['block1c_add[0][0]']
 D)

 block2a_expand_bn (BatchNo  (None, 112, 112, 192)        768       ['block2a_expand_conv[0][0]']
 rmalization)

 block2a_expand_activation   (None, 112, 112, 192)        0         ['block2a_expand_bn[0][0]']
 (Activation)

 block2a_dwconv_pad (ZeroPa  (None, 113, 113, 192)        0         ['block2a_expand_activation[0]
 dding2D)                                                           [0]']

 block2a_dwconv (DepthwiseC  (None, 56, 56, 192)          1728      ['block2a_dwconv_pad[0][0]']
 onv2D)

 block2a_bn (BatchNormaliza  (None, 56, 56, 192)          768       ['block2a_dwconv[0][0]']
 tion)

 block2a_activation (Activa  (None, 56, 56, 192)          0         ['block2a_bn[0][0]']
 tion)

 block2a_se_squeeze (Global  (None, 192)                  0         ['block2a_activation[0][0]']
 AveragePooling2D)

 block2a_se_reshape (Reshap  (None, 1, 1, 192)            0         ['block2a_se_squeeze[0][0]']
 e)

 block2a_se_reduce (Conv2D)  (None, 1, 1, 8)              1544      ['block2a_se_reshape[0][0]']

 block2a_se_expand (Conv2D)  (None, 1, 1, 192)            1728      ['block2a_se_reduce[0][0]']

 block2a_se_excite (Multipl  (None, 56, 56, 192)          0         ['block2a_activation[0][0]',
 y)                                                                  'block2a_se_expand[0][0]']

 block2a_project_conv (Conv  (None, 56, 56, 40)           7680      ['block2a_se_excite[0][0]']
 2D)

 block2a_project_bn (BatchN  (None, 56, 56, 40)           160       ['block2a_project_conv[0][0]']
 ormalization)

 block2b_expand_conv (Conv2  (None, 56, 56, 240)          9600      ['block2a_project_bn[0][0]']
 D)

 block2b_expand_bn (BatchNo  (None, 56, 56, 240)          960       ['block2b_expand_conv[0][0]']
 rmalization)

 block2b_expand_activation   (None, 56, 56, 240)          0         ['block2b_expand_bn[0][0]']
 (Activation)

 block2b_dwconv (DepthwiseC  (None, 56, 56, 240)          2160      ['block2b_expand_activation[0]
 onv2D)                                                             [0]']

 block2b_bn (BatchNormaliza  (None, 56, 56, 240)          960       ['block2b_dwconv[0][0]']
 tion)

 block2b_activation (Activa  (None, 56, 56, 240)          0         ['block2b_bn[0][0]']
 tion)

 block2b_se_squeeze (Global  (None, 240)                  0         ['block2b_activation[0][0]']
 AveragePooling2D)

 block2b_se_reshape (Reshap  (None, 1, 1, 240)            0         ['block2b_se_squeeze[0][0]']
 e)

 block2b_se_reduce (Conv2D)  (None, 1, 1, 10)             2410      ['block2b_se_reshape[0][0]']

 block2b_se_expand (Conv2D)  (None, 1, 1, 240)            2640      ['block2b_se_reduce[0][0]']

 block2b_se_excite (Multipl  (None, 56, 56, 240)          0         ['block2b_activation[0][0]',
 y)                                                                  'block2b_se_expand[0][0]']

 block2b_project_conv (Conv  (None, 56, 56, 40)           9600      ['block2b_se_excite[0][0]']
 2D)

 block2b_project_bn (BatchN  (None, 56, 56, 40)           160       ['block2b_project_conv[0][0]']
 ormalization)

 block2b_drop (Dropout)      (None, 56, 56, 40)           0         ['block2b_project_bn[0][0]']

 block2b_add (Add)           (None, 56, 56, 40)           0         ['block2b_drop[0][0]',
                                                                     'block2a_project_bn[0][0]']

 block2c_expand_conv (Conv2  (None, 56, 56, 240)          9600      ['block2b_add[0][0]']
 D)

 block2c_expand_bn (BatchNo  (None, 56, 56, 240)          960       ['block2c_expand_conv[0][0]']
 rmalization)

 block2c_expand_activation   (None, 56, 56, 240)          0         ['block2c_expand_bn[0][0]']
 (Activation)

 block2c_dwconv (DepthwiseC  (None, 56, 56, 240)          2160      ['block2c_expand_activation[0]
 onv2D)                                                             [0]']

 block2c_bn (BatchNormaliza  (None, 56, 56, 240)          960       ['block2c_dwconv[0][0]']
 tion)

 block2c_activation (Activa  (None, 56, 56, 240)          0         ['block2c_bn[0][0]']
 tion)

 block2c_se_squeeze (Global  (None, 240)                  0         ['block2c_activation[0][0]']
 AveragePooling2D)

 block2c_se_reshape (Reshap  (None, 1, 1, 240)            0         ['block2c_se_squeeze[0][0]']
 e)

 block2c_se_reduce (Conv2D)  (None, 1, 1, 10)             2410      ['block2c_se_reshape[0][0]']

 block2c_se_expand (Conv2D)  (None, 1, 1, 240)            2640      ['block2c_se_reduce[0][0]']

 block2c_se_excite (Multipl  (None, 56, 56, 240)          0         ['block2c_activation[0][0]',
 y)                                                                  'block2c_se_expand[0][0]']

 block2c_project_conv (Conv  (None, 56, 56, 40)           9600      ['block2c_se_excite[0][0]']
 2D)

 block2c_project_bn (BatchN  (None, 56, 56, 40)           160       ['block2c_project_conv[0][0]']
 ormalization)

 block2c_drop (Dropout)      (None, 56, 56, 40)           0         ['block2c_project_bn[0][0]']

 block2c_add (Add)           (None, 56, 56, 40)           0         ['block2c_drop[0][0]',
                                                                     'block2b_add[0][0]']

 block2d_expand_conv (Conv2  (None, 56, 56, 240)          9600      ['block2c_add[0][0]']
 D)

 block2d_expand_bn (BatchNo  (None, 56, 56, 240)          960       ['block2d_expand_conv[0][0]']
 rmalization)

 block2d_expand_activation   (None, 56, 56, 240)          0         ['block2d_expand_bn[0][0]']
 (Activation)

 block2d_dwconv (DepthwiseC  (None, 56, 56, 240)          2160      ['block2d_expand_activation[0]
 onv2D)                                                             [0]']

 block2d_bn (BatchNormaliza  (None, 56, 56, 240)          960       ['block2d_dwconv[0][0]']
 tion)

 block2d_activation (Activa  (None, 56, 56, 240)          0         ['block2d_bn[0][0]']
 tion)

 block2d_se_squeeze (Global  (None, 240)                  0         ['block2d_activation[0][0]']
 AveragePooling2D)

 block2d_se_reshape (Reshap  (None, 1, 1, 240)            0         ['block2d_se_squeeze[0][0]']
 e)

 block2d_se_reduce (Conv2D)  (None, 1, 1, 10)             2410      ['block2d_se_reshape[0][0]']

 block2d_se_expand (Conv2D)  (None, 1, 1, 240)            2640      ['block2d_se_reduce[0][0]']

 block2d_se_excite (Multipl  (None, 56, 56, 240)          0         ['block2d_activation[0][0]',
 y)                                                                  'block2d_se_expand[0][0]']

 block2d_project_conv (Conv  (None, 56, 56, 40)           9600      ['block2d_se_excite[0][0]']
 2D)

 block2d_project_bn (BatchN  (None, 56, 56, 40)           160       ['block2d_project_conv[0][0]']
 ormalization)

 block2d_drop (Dropout)      (None, 56, 56, 40)           0         ['block2d_project_bn[0][0]']

 block2d_add (Add)           (None, 56, 56, 40)           0         ['block2d_drop[0][0]',
                                                                     'block2c_add[0][0]']

 block2e_expand_conv (Conv2  (None, 56, 56, 240)          9600      ['block2d_add[0][0]']
 D)

 block2e_expand_bn (BatchNo  (None, 56, 56, 240)          960       ['block2e_expand_conv[0][0]']
 rmalization)

 block2e_expand_activation   (None, 56, 56, 240)          0         ['block2e_expand_bn[0][0]']
 (Activation)

 block2e_dwconv (DepthwiseC  (None, 56, 56, 240)          2160      ['block2e_expand_activation[0]
 onv2D)                                                             [0]']

 block2e_bn (BatchNormaliza  (None, 56, 56, 240)          960       ['block2e_dwconv[0][0]']
 tion)

 block2e_activation (Activa  (None, 56, 56, 240)          0         ['block2e_bn[0][0]']
 tion)

 block2e_se_squeeze (Global  (None, 240)                  0         ['block2e_activation[0][0]']
 AveragePooling2D)

 block2e_se_reshape (Reshap  (None, 1, 1, 240)            0         ['block2e_se_squeeze[0][0]']
 e)

 block2e_se_reduce (Conv2D)  (None, 1, 1, 10)             2410      ['block2e_se_reshape[0][0]']

 block2e_se_expand (Conv2D)  (None, 1, 1, 240)            2640      ['block2e_se_reduce[0][0]']

 block2e_se_excite (Multipl  (None, 56, 56, 240)          0         ['block2e_activation[0][0]',
 y)                                                                  'block2e_se_expand[0][0]']

 block2e_project_conv (Conv  (None, 56, 56, 40)           9600      ['block2e_se_excite[0][0]']
 2D)

 block2e_project_bn (BatchN  (None, 56, 56, 40)           160       ['block2e_project_conv[0][0]']
 ormalization)

 block2e_drop (Dropout)      (None, 56, 56, 40)           0         ['block2e_project_bn[0][0]']

 block2e_add (Add)           (None, 56, 56, 40)           0         ['block2e_drop[0][0]',
                                                                     'block2d_add[0][0]']

 block2f_expand_conv (Conv2  (None, 56, 56, 240)          9600      ['block2e_add[0][0]']
 D)

 block2f_expand_bn (BatchNo  (None, 56, 56, 240)          960       ['block2f_expand_conv[0][0]']
 rmalization)

 block2f_expand_activation   (None, 56, 56, 240)          0         ['block2f_expand_bn[0][0]']
 (Activation)

 block2f_dwconv (DepthwiseC  (None, 56, 56, 240)          2160      ['block2f_expand_activation[0]
 onv2D)                                                             [0]']

 block2f_bn (BatchNormaliza  (None, 56, 56, 240)          960       ['block2f_dwconv[0][0]']
 tion)

 block2f_activation (Activa  (None, 56, 56, 240)          0         ['block2f_bn[0][0]']
 tion)

 block2f_se_squeeze (Global  (None, 240)                  0         ['block2f_activation[0][0]']
 AveragePooling2D)

 block2f_se_reshape (Reshap  (None, 1, 1, 240)            0         ['block2f_se_squeeze[0][0]']
 e)

 block2f_se_reduce (Conv2D)  (None, 1, 1, 10)             2410      ['block2f_se_reshape[0][0]']

 block2f_se_expand (Conv2D)  (None, 1, 1, 240)            2640      ['block2f_se_reduce[0][0]']

 block2f_se_excite (Multipl  (None, 56, 56, 240)          0         ['block2f_activation[0][0]',
 y)                                                                  'block2f_se_expand[0][0]']

 block2f_project_conv (Conv  (None, 56, 56, 40)           9600      ['block2f_se_excite[0][0]']
 2D)

 block2f_project_bn (BatchN  (None, 56, 56, 40)           160       ['block2f_project_conv[0][0]']
 ormalization)

 block2f_drop (Dropout)      (None, 56, 56, 40)           0         ['block2f_project_bn[0][0]']

 block2f_add (Add)           (None, 56, 56, 40)           0         ['block2f_drop[0][0]',
                                                                     'block2e_add[0][0]']

 block3a_expand_conv (Conv2  (None, 56, 56, 240)          9600      ['block2f_add[0][0]']
 D)

 block3a_expand_bn (BatchNo  (None, 56, 56, 240)          960       ['block3a_expand_conv[0][0]']
 rmalization)

 block3a_expand_activation   (None, 56, 56, 240)          0         ['block3a_expand_bn[0][0]']
 (Activation)

 block3a_dwconv_pad (ZeroPa  (None, 59, 59, 240)          0         ['block3a_expand_activation[0]
 dding2D)                                                           [0]']

 block3a_dwconv (DepthwiseC  (None, 28, 28, 240)          6000      ['block3a_dwconv_pad[0][0]']
 onv2D)

 block3a_bn (BatchNormaliza  (None, 28, 28, 240)          960       ['block3a_dwconv[0][0]']
 tion)

 block3a_activation (Activa  (None, 28, 28, 240)          0         ['block3a_bn[0][0]']
 tion)

 block3a_se_squeeze (Global  (None, 240)                  0         ['block3a_activation[0][0]']
 AveragePooling2D)

 block3a_se_reshape (Reshap  (None, 1, 1, 240)            0         ['block3a_se_squeeze[0][0]']
 e)

 block3a_se_reduce (Conv2D)  (None, 1, 1, 10)             2410      ['block3a_se_reshape[0][0]']

 block3a_se_expand (Conv2D)  (None, 1, 1, 240)            2640      ['block3a_se_reduce[0][0]']

 block3a_se_excite (Multipl  (None, 28, 28, 240)          0         ['block3a_activation[0][0]',
 y)                                                                  'block3a_se_expand[0][0]']

 block3a_project_conv (Conv  (None, 28, 28, 72)           17280     ['block3a_se_excite[0][0]']
 2D)

 block3a_project_bn (BatchN  (None, 28, 28, 72)           288       ['block3a_project_conv[0][0]']
 ormalization)

 block3b_expand_conv (Conv2  (None, 28, 28, 432)          31104     ['block3a_project_bn[0][0]']
 D)

 block3b_expand_bn (BatchNo  (None, 28, 28, 432)          1728      ['block3b_expand_conv[0][0]']
 rmalization)

 block3b_expand_activation   (None, 28, 28, 432)          0         ['block3b_expand_bn[0][0]']
 (Activation)

 block3b_dwconv (DepthwiseC  (None, 28, 28, 432)          10800     ['block3b_expand_activation[0]
 onv2D)                                                             [0]']

 block3b_bn (BatchNormaliza  (None, 28, 28, 432)          1728      ['block3b_dwconv[0][0]']
 tion)

 block3b_activation (Activa  (None, 28, 28, 432)          0         ['block3b_bn[0][0]']
 tion)

 block3b_se_squeeze (Global  (None, 432)                  0         ['block3b_activation[0][0]']
 AveragePooling2D)

 block3b_se_reshape (Reshap  (None, 1, 1, 432)            0         ['block3b_se_squeeze[0][0]']
 e)

 block3b_se_reduce (Conv2D)  (None, 1, 1, 18)             7794      ['block3b_se_reshape[0][0]']

 block3b_se_expand (Conv2D)  (None, 1, 1, 432)            8208      ['block3b_se_reduce[0][0]']

 block3b_se_excite (Multipl  (None, 28, 28, 432)          0         ['block3b_activation[0][0]',
 y)                                                                  'block3b_se_expand[0][0]']

 block3b_project_conv (Conv  (None, 28, 28, 72)           31104     ['block3b_se_excite[0][0]']
 2D)

 block3b_project_bn (BatchN  (None, 28, 28, 72)           288       ['block3b_project_conv[0][0]']
 ormalization)

 block3b_drop (Dropout)      (None, 28, 28, 72)           0         ['block3b_project_bn[0][0]']

 block3b_add (Add)           (None, 28, 28, 72)           0         ['block3b_drop[0][0]',
                                                                     'block3a_project_bn[0][0]']

 block3c_expand_conv (Conv2  (None, 28, 28, 432)          31104     ['block3b_add[0][0]']
 D)

 block3c_expand_bn (BatchNo  (None, 28, 28, 432)          1728      ['block3c_expand_conv[0][0]']
 rmalization)

 block3c_expand_activation   (None, 28, 28, 432)          0         ['block3c_expand_bn[0][0]']
 (Activation)

 block3c_dwconv (DepthwiseC  (None, 28, 28, 432)          10800     ['block3c_expand_activation[0]
 onv2D)                                                             [0]']

 block3c_bn (BatchNormaliza  (None, 28, 28, 432)          1728      ['block3c_dwconv[0][0]']
 tion)

 block3c_activation (Activa  (None, 28, 28, 432)          0         ['block3c_bn[0][0]']
 tion)

 block3c_se_squeeze (Global  (None, 432)                  0         ['block3c_activation[0][0]']
 AveragePooling2D)

 block3c_se_reshape (Reshap  (None, 1, 1, 432)            0         ['block3c_se_squeeze[0][0]']
 e)

 block3c_se_reduce (Conv2D)  (None, 1, 1, 18)             7794      ['block3c_se_reshape[0][0]']

 block3c_se_expand (Conv2D)  (None, 1, 1, 432)            8208      ['block3c_se_reduce[0][0]']

 block3c_se_excite (Multipl  (None, 28, 28, 432)          0         ['block3c_activation[0][0]',
 y)                                                                  'block3c_se_expand[0][0]']

 block3c_project_conv (Conv  (None, 28, 28, 72)           31104     ['block3c_se_excite[0][0]']
 2D)

 block3c_project_bn (BatchN  (None, 28, 28, 72)           288       ['block3c_project_conv[0][0]']
 ormalization)

 block3c_drop (Dropout)      (None, 28, 28, 72)           0         ['block3c_project_bn[0][0]']

 block3c_add (Add)           (None, 28, 28, 72)           0         ['block3c_drop[0][0]',
                                                                     'block3b_add[0][0]']

 block3d_expand_conv (Conv2  (None, 28, 28, 432)          31104     ['block3c_add[0][0]']
 D)

 block3d_expand_bn (BatchNo  (None, 28, 28, 432)          1728      ['block3d_expand_conv[0][0]']
 rmalization)

 block3d_expand_activation   (None, 28, 28, 432)          0         ['block3d_expand_bn[0][0]']
 (Activation)

 block3d_dwconv (DepthwiseC  (None, 28, 28, 432)          10800     ['block3d_expand_activation[0]
 onv2D)                                                             [0]']

 block3d_bn (BatchNormaliza  (None, 28, 28, 432)          1728      ['block3d_dwconv[0][0]']
 tion)

 block3d_activation (Activa  (None, 28, 28, 432)          0         ['block3d_bn[0][0]']
 tion)

 block3d_se_squeeze (Global  (None, 432)                  0         ['block3d_activation[0][0]']
 AveragePooling2D)

 block3d_se_reshape (Reshap  (None, 1, 1, 432)            0         ['block3d_se_squeeze[0][0]']
 e)

 block3d_se_reduce (Conv2D)  (None, 1, 1, 18)             7794      ['block3d_se_reshape[0][0]']

 block3d_se_expand (Conv2D)  (None, 1, 1, 432)            8208      ['block3d_se_reduce[0][0]']

 block3d_se_excite (Multipl  (None, 28, 28, 432)          0         ['block3d_activation[0][0]',
 y)                                                                  'block3d_se_expand[0][0]']

 block3d_project_conv (Conv  (None, 28, 28, 72)           31104     ['block3d_se_excite[0][0]']
 2D)

 block3d_project_bn (BatchN  (None, 28, 28, 72)           288       ['block3d_project_conv[0][0]']
 ormalization)

 block3d_drop (Dropout)      (None, 28, 28, 72)           0         ['block3d_project_bn[0][0]']

 block3d_add (Add)           (None, 28, 28, 72)           0         ['block3d_drop[0][0]',
                                                                     'block3c_add[0][0]']

 block3e_expand_conv (Conv2  (None, 28, 28, 432)          31104     ['block3d_add[0][0]']
 D)

 block3e_expand_bn (BatchNo  (None, 28, 28, 432)          1728      ['block3e_expand_conv[0][0]']
 rmalization)

 block3e_expand_activation   (None, 28, 28, 432)          0         ['block3e_expand_bn[0][0]']
 (Activation)

 block3e_dwconv (DepthwiseC  (None, 28, 28, 432)          10800     ['block3e_expand_activation[0]
 onv2D)                                                             [0]']

 block3e_bn (BatchNormaliza  (None, 28, 28, 432)          1728      ['block3e_dwconv[0][0]']
 tion)

 block3e_activation (Activa  (None, 28, 28, 432)          0         ['block3e_bn[0][0]']
 tion)

 block3e_se_squeeze (Global  (None, 432)                  0         ['block3e_activation[0][0]']
 AveragePooling2D)

 block3e_se_reshape (Reshap  (None, 1, 1, 432)            0         ['block3e_se_squeeze[0][0]']
 e)

 block3e_se_reduce (Conv2D)  (None, 1, 1, 18)             7794      ['block3e_se_reshape[0][0]']

 block3e_se_expand (Conv2D)  (None, 1, 1, 432)            8208      ['block3e_se_reduce[0][0]']

 block3e_se_excite (Multipl  (None, 28, 28, 432)          0         ['block3e_activation[0][0]',
 y)                                                                  'block3e_se_expand[0][0]']

 block3e_project_conv (Conv  (None, 28, 28, 72)           31104     ['block3e_se_excite[0][0]']
 2D)

 block3e_project_bn (BatchN  (None, 28, 28, 72)           288       ['block3e_project_conv[0][0]']
 ormalization)

 block3e_drop (Dropout)      (None, 28, 28, 72)           0         ['block3e_project_bn[0][0]']

 block3e_add (Add)           (None, 28, 28, 72)           0         ['block3e_drop[0][0]',
                                                                     'block3d_add[0][0]']

 block3f_expand_conv (Conv2  (None, 28, 28, 432)          31104     ['block3e_add[0][0]']
 D)

 block3f_expand_bn (BatchNo  (None, 28, 28, 432)          1728      ['block3f_expand_conv[0][0]']
 rmalization)

 block3f_expand_activation   (None, 28, 28, 432)          0         ['block3f_expand_bn[0][0]']
 (Activation)

 block3f_dwconv (DepthwiseC  (None, 28, 28, 432)          10800     ['block3f_expand_activation[0]
 onv2D)                                                             [0]']

 block3f_bn (BatchNormaliza  (None, 28, 28, 432)          1728      ['block3f_dwconv[0][0]']
 tion)

 block3f_activation (Activa  (None, 28, 28, 432)          0         ['block3f_bn[0][0]']
 tion)

 block3f_se_squeeze (Global  (None, 432)                  0         ['block3f_activation[0][0]']
 AveragePooling2D)

 block3f_se_reshape (Reshap  (None, 1, 1, 432)            0         ['block3f_se_squeeze[0][0]']
 e)

 block3f_se_reduce (Conv2D)  (None, 1, 1, 18)             7794      ['block3f_se_reshape[0][0]']

 block3f_se_expand (Conv2D)  (None, 1, 1, 432)            8208      ['block3f_se_reduce[0][0]']

 block3f_se_excite (Multipl  (None, 28, 28, 432)          0         ['block3f_activation[0][0]',
 y)                                                                  'block3f_se_expand[0][0]']

 block3f_project_conv (Conv  (None, 28, 28, 72)           31104     ['block3f_se_excite[0][0]']
 2D)

 block3f_project_bn (BatchN  (None, 28, 28, 72)           288       ['block3f_project_conv[0][0]']
 ormalization)

 block3f_drop (Dropout)      (None, 28, 28, 72)           0         ['block3f_project_bn[0][0]']

 block3f_add (Add)           (None, 28, 28, 72)           0         ['block3f_drop[0][0]',
                                                                     'block3e_add[0][0]']

 block4a_expand_conv (Conv2  (None, 28, 28, 432)          31104     ['block3f_add[0][0]']
 D)

 block4a_expand_bn (BatchNo  (None, 28, 28, 432)          1728      ['block4a_expand_conv[0][0]']
 rmalization)

 block4a_expand_activation   (None, 28, 28, 432)          0         ['block4a_expand_bn[0][0]']
 (Activation)

 block4a_dwconv_pad (ZeroPa  (None, 29, 29, 432)          0         ['block4a_expand_activation[0]
 dding2D)                                                           [0]']

 block4a_dwconv (DepthwiseC  (None, 14, 14, 432)          3888      ['block4a_dwconv_pad[0][0]']
 onv2D)

 block4a_bn (BatchNormaliza  (None, 14, 14, 432)          1728      ['block4a_dwconv[0][0]']
 tion)

 block4a_activation (Activa  (None, 14, 14, 432)          0         ['block4a_bn[0][0]']
 tion)

 block4a_se_squeeze (Global  (None, 432)                  0         ['block4a_activation[0][0]']
 AveragePooling2D)

 block4a_se_reshape (Reshap  (None, 1, 1, 432)            0         ['block4a_se_squeeze[0][0]']
 e)

 block4a_se_reduce (Conv2D)  (None, 1, 1, 18)             7794      ['block4a_se_reshape[0][0]']

 block4a_se_expand (Conv2D)  (None, 1, 1, 432)            8208      ['block4a_se_reduce[0][0]']

 block4a_se_excite (Multipl  (None, 14, 14, 432)          0         ['block4a_activation[0][0]',
 y)                                                                  'block4a_se_expand[0][0]']

 block4a_project_conv (Conv  (None, 14, 14, 144)          62208     ['block4a_se_excite[0][0]']
 2D)

 block4a_project_bn (BatchN  (None, 14, 14, 144)          576       ['block4a_project_conv[0][0]']
 ormalization)

 block4b_expand_conv (Conv2  (None, 14, 14, 864)          124416    ['block4a_project_bn[0][0]']
 D)

 block4b_expand_bn (BatchNo  (None, 14, 14, 864)          3456      ['block4b_expand_conv[0][0]']
 rmalization)

 block4b_expand_activation   (None, 14, 14, 864)          0         ['block4b_expand_bn[0][0]']
 (Activation)

 block4b_dwconv (DepthwiseC  (None, 14, 14, 864)          7776      ['block4b_expand_activation[0]
 onv2D)                                                             [0]']

 block4b_bn (BatchNormaliza  (None, 14, 14, 864)          3456      ['block4b_dwconv[0][0]']
 tion)

 block4b_activation (Activa  (None, 14, 14, 864)          0         ['block4b_bn[0][0]']
 tion)

 block4b_se_squeeze (Global  (None, 864)                  0         ['block4b_activation[0][0]']
 AveragePooling2D)

 block4b_se_reshape (Reshap  (None, 1, 1, 864)            0         ['block4b_se_squeeze[0][0]']
 e)

 block4b_se_reduce (Conv2D)  (None, 1, 1, 36)             31140     ['block4b_se_reshape[0][0]']

 block4b_se_expand (Conv2D)  (None, 1, 1, 864)            31968     ['block4b_se_reduce[0][0]']

 block4b_se_excite (Multipl  (None, 14, 14, 864)          0         ['block4b_activation[0][0]',
 y)                                                                  'block4b_se_expand[0][0]']

 block4b_project_conv (Conv  (None, 14, 14, 144)          124416    ['block4b_se_excite[0][0]']
 2D)

 block4b_project_bn (BatchN  (None, 14, 14, 144)          576       ['block4b_project_conv[0][0]']
 ormalization)

 block4b_drop (Dropout)      (None, 14, 14, 144)          0         ['block4b_project_bn[0][0]']

 block4b_add (Add)           (None, 14, 14, 144)          0         ['block4b_drop[0][0]',
                                                                     'block4a_project_bn[0][0]']

 block4c_expand_conv (Conv2  (None, 14, 14, 864)          124416    ['block4b_add[0][0]']
 D)

 block4c_expand_bn (BatchNo  (None, 14, 14, 864)          3456      ['block4c_expand_conv[0][0]']
 rmalization)

 block4c_expand_activation   (None, 14, 14, 864)          0         ['block4c_expand_bn[0][0]']
 (Activation)

 block4c_dwconv (DepthwiseC  (None, 14, 14, 864)          7776      ['block4c_expand_activation[0]
 onv2D)                                                             [0]']

 block4c_bn (BatchNormaliza  (None, 14, 14, 864)          3456      ['block4c_dwconv[0][0]']
 tion)

 block4c_activation (Activa  (None, 14, 14, 864)          0         ['block4c_bn[0][0]']
 tion)

 block4c_se_squeeze (Global  (None, 864)                  0         ['block4c_activation[0][0]']
 AveragePooling2D)

 block4c_se_reshape (Reshap  (None, 1, 1, 864)            0         ['block4c_se_squeeze[0][0]']
 e)

 block4c_se_reduce (Conv2D)  (None, 1, 1, 36)             31140     ['block4c_se_reshape[0][0]']

 block4c_se_expand (Conv2D)  (None, 1, 1, 864)            31968     ['block4c_se_reduce[0][0]']

 block4c_se_excite (Multipl  (None, 14, 14, 864)          0         ['block4c_activation[0][0]',
 y)                                                                  'block4c_se_expand[0][0]']

 block4c_project_conv (Conv  (None, 14, 14, 144)          124416    ['block4c_se_excite[0][0]']
 2D)

 block4c_project_bn (BatchN  (None, 14, 14, 144)          576       ['block4c_project_conv[0][0]']
 ormalization)

 block4c_drop (Dropout)      (None, 14, 14, 144)          0         ['block4c_project_bn[0][0]']

 block4c_add (Add)           (None, 14, 14, 144)          0         ['block4c_drop[0][0]',
                                                                     'block4b_add[0][0]']

 block4d_expand_conv (Conv2  (None, 14, 14, 864)          124416    ['block4c_add[0][0]']
 D)

 block4d_expand_bn (BatchNo  (None, 14, 14, 864)          3456      ['block4d_expand_conv[0][0]']
 rmalization)

 block4d_expand_activation   (None, 14, 14, 864)          0         ['block4d_expand_bn[0][0]']
 (Activation)

 block4d_dwconv (DepthwiseC  (None, 14, 14, 864)          7776      ['block4d_expand_activation[0]
 onv2D)                                                             [0]']

 block4d_bn (BatchNormaliza  (None, 14, 14, 864)          3456      ['block4d_dwconv[0][0]']
 tion)

 block4d_activation (Activa  (None, 14, 14, 864)          0         ['block4d_bn[0][0]']
 tion)

 block4d_se_squeeze (Global  (None, 864)                  0         ['block4d_activation[0][0]']
 AveragePooling2D)

 block4d_se_reshape (Reshap  (None, 1, 1, 864)            0         ['block4d_se_squeeze[0][0]']
 e)

 block4d_se_reduce (Conv2D)  (None, 1, 1, 36)             31140     ['block4d_se_reshape[0][0]']

 block4d_se_expand (Conv2D)  (None, 1, 1, 864)            31968     ['block4d_se_reduce[0][0]']

 block4d_se_excite (Multipl  (None, 14, 14, 864)          0         ['block4d_activation[0][0]',
 y)                                                                  'block4d_se_expand[0][0]']

 block4d_project_conv (Conv  (None, 14, 14, 144)          124416    ['block4d_se_excite[0][0]']
 2D)

 block4d_project_bn (BatchN  (None, 14, 14, 144)          576       ['block4d_project_conv[0][0]']
 ormalization)

 block4d_drop (Dropout)      (None, 14, 14, 144)          0         ['block4d_project_bn[0][0]']

 block4d_add (Add)           (None, 14, 14, 144)          0         ['block4d_drop[0][0]',
                                                                     'block4c_add[0][0]']

 block4e_expand_conv (Conv2  (None, 14, 14, 864)          124416    ['block4d_add[0][0]']
 D)

 block4e_expand_bn (BatchNo  (None, 14, 14, 864)          3456      ['block4e_expand_conv[0][0]']
 rmalization)

 block4e_expand_activation   (None, 14, 14, 864)          0         ['block4e_expand_bn[0][0]']
 (Activation)

 block4e_dwconv (DepthwiseC  (None, 14, 14, 864)          7776      ['block4e_expand_activation[0]
 onv2D)                                                             [0]']

 block4e_bn (BatchNormaliza  (None, 14, 14, 864)          3456      ['block4e_dwconv[0][0]']
 tion)

 block4e_activation (Activa  (None, 14, 14, 864)          0         ['block4e_bn[0][0]']
 tion)

 block4e_se_squeeze (Global  (None, 864)                  0         ['block4e_activation[0][0]']
 AveragePooling2D)

 block4e_se_reshape (Reshap  (None, 1, 1, 864)            0         ['block4e_se_squeeze[0][0]']
 e)

 block4e_se_reduce (Conv2D)  (None, 1, 1, 36)             31140     ['block4e_se_reshape[0][0]']

 block4e_se_expand (Conv2D)  (None, 1, 1, 864)            31968     ['block4e_se_reduce[0][0]']

 block4e_se_excite (Multipl  (None, 14, 14, 864)          0         ['block4e_activation[0][0]',
 y)                                                                  'block4e_se_expand[0][0]']

 block4e_project_conv (Conv  (None, 14, 14, 144)          124416    ['block4e_se_excite[0][0]']
 2D)

 block4e_project_bn (BatchN  (None, 14, 14, 144)          576       ['block4e_project_conv[0][0]']
 ormalization)

 block4e_drop (Dropout)      (None, 14, 14, 144)          0         ['block4e_project_bn[0][0]']

 block4e_add (Add)           (None, 14, 14, 144)          0         ['block4e_drop[0][0]',
                                                                     'block4d_add[0][0]']

 block4f_expand_conv (Conv2  (None, 14, 14, 864)          124416    ['block4e_add[0][0]']
 D)

 block4f_expand_bn (BatchNo  (None, 14, 14, 864)          3456      ['block4f_expand_conv[0][0]']
 rmalization)

 block4f_expand_activation   (None, 14, 14, 864)          0         ['block4f_expand_bn[0][0]']
 (Activation)

 block4f_dwconv (DepthwiseC  (None, 14, 14, 864)          7776      ['block4f_expand_activation[0]
 onv2D)                                                             [0]']

 block4f_bn (BatchNormaliza  (None, 14, 14, 864)          3456      ['block4f_dwconv[0][0]']
 tion)

 block4f_activation (Activa  (None, 14, 14, 864)          0         ['block4f_bn[0][0]']
 tion)

 block4f_se_squeeze (Global  (None, 864)                  0         ['block4f_activation[0][0]']
 AveragePooling2D)

 block4f_se_reshape (Reshap  (None, 1, 1, 864)            0         ['block4f_se_squeeze[0][0]']
 e)

 block4f_se_reduce (Conv2D)  (None, 1, 1, 36)             31140     ['block4f_se_reshape[0][0]']

 block4f_se_expand (Conv2D)  (None, 1, 1, 864)            31968     ['block4f_se_reduce[0][0]']

 block4f_se_excite (Multipl  (None, 14, 14, 864)          0         ['block4f_activation[0][0]',
 y)                                                                  'block4f_se_expand[0][0]']

 block4f_project_conv (Conv  (None, 14, 14, 144)          124416    ['block4f_se_excite[0][0]']
 2D)

 block4f_project_bn (BatchN  (None, 14, 14, 144)          576       ['block4f_project_conv[0][0]']
 ormalization)

 block4f_drop (Dropout)      (None, 14, 14, 144)          0         ['block4f_project_bn[0][0]']

 block4f_add (Add)           (None, 14, 14, 144)          0         ['block4f_drop[0][0]',
                                                                     'block4e_add[0][0]']

 block4g_expand_conv (Conv2  (None, 14, 14, 864)          124416    ['block4f_add[0][0]']
 D)

 block4g_expand_bn (BatchNo  (None, 14, 14, 864)          3456      ['block4g_expand_conv[0][0]']
 rmalization)

 block4g_expand_activation   (None, 14, 14, 864)          0         ['block4g_expand_bn[0][0]']
 (Activation)

 block4g_dwconv (DepthwiseC  (None, 14, 14, 864)          7776      ['block4g_expand_activation[0]
 onv2D)                                                             [0]']

 block4g_bn (BatchNormaliza  (None, 14, 14, 864)          3456      ['block4g_dwconv[0][0]']
 tion)

 block4g_activation (Activa  (None, 14, 14, 864)          0         ['block4g_bn[0][0]']
 tion)

 block4g_se_squeeze (Global  (None, 864)                  0         ['block4g_activation[0][0]']
 AveragePooling2D)

 block4g_se_reshape (Reshap  (None, 1, 1, 864)            0         ['block4g_se_squeeze[0][0]']
 e)

 block4g_se_reduce (Conv2D)  (None, 1, 1, 36)             31140     ['block4g_se_reshape[0][0]']

 block4g_se_expand (Conv2D)  (None, 1, 1, 864)            31968     ['block4g_se_reduce[0][0]']

 block4g_se_excite (Multipl  (None, 14, 14, 864)          0         ['block4g_activation[0][0]',
 y)                                                                  'block4g_se_expand[0][0]']

 block4g_project_conv (Conv  (None, 14, 14, 144)          124416    ['block4g_se_excite[0][0]']
 2D)

 block4g_project_bn (BatchN  (None, 14, 14, 144)          576       ['block4g_project_conv[0][0]']
 ormalization)

 block4g_drop (Dropout)      (None, 14, 14, 144)          0         ['block4g_project_bn[0][0]']

 block4g_add (Add)           (None, 14, 14, 144)          0         ['block4g_drop[0][0]',
                                                                     'block4f_add[0][0]']

 block4h_expand_conv (Conv2  (None, 14, 14, 864)          124416    ['block4g_add[0][0]']
 D)

 block4h_expand_bn (BatchNo  (None, 14, 14, 864)          3456      ['block4h_expand_conv[0][0]']
 rmalization)

 block4h_expand_activation   (None, 14, 14, 864)          0         ['block4h_expand_bn[0][0]']
 (Activation)

 block4h_dwconv (DepthwiseC  (None, 14, 14, 864)          7776      ['block4h_expand_activation[0]
 onv2D)                                                             [0]']

 block4h_bn (BatchNormaliza  (None, 14, 14, 864)          3456      ['block4h_dwconv[0][0]']
 tion)

 block4h_activation (Activa  (None, 14, 14, 864)          0         ['block4h_bn[0][0]']
 tion)

 block4h_se_squeeze (Global  (None, 864)                  0         ['block4h_activation[0][0]']
 AveragePooling2D)

 block4h_se_reshape (Reshap  (None, 1, 1, 864)            0         ['block4h_se_squeeze[0][0]']
 e)

 block4h_se_reduce (Conv2D)  (None, 1, 1, 36)             31140     ['block4h_se_reshape[0][0]']

 block4h_se_expand (Conv2D)  (None, 1, 1, 864)            31968     ['block4h_se_reduce[0][0]']

 block4h_se_excite (Multipl  (None, 14, 14, 864)          0         ['block4h_activation[0][0]',
 y)                                                                  'block4h_se_expand[0][0]']

 block4h_project_conv (Conv  (None, 14, 14, 144)          124416    ['block4h_se_excite[0][0]']
 2D)

 block4h_project_bn (BatchN  (None, 14, 14, 144)          576       ['block4h_project_conv[0][0]']
 ormalization)

 block4h_drop (Dropout)      (None, 14, 14, 144)          0         ['block4h_project_bn[0][0]']

 block4h_add (Add)           (None, 14, 14, 144)          0         ['block4h_drop[0][0]',
                                                                     'block4g_add[0][0]']

 block5a_expand_conv (Conv2  (None, 14, 14, 864)          124416    ['block4h_add[0][0]']
 D)

 block5a_expand_bn (BatchNo  (None, 14, 14, 864)          3456      ['block5a_expand_conv[0][0]']
 rmalization)

 block5a_expand_activation   (None, 14, 14, 864)          0         ['block5a_expand_bn[0][0]']
 (Activation)

 block5a_dwconv (DepthwiseC  (None, 14, 14, 864)          21600     ['block5a_expand_activation[0]
 onv2D)                                                             [0]']

 block5a_bn (BatchNormaliza  (None, 14, 14, 864)          3456      ['block5a_dwconv[0][0]']
 tion)

 block5a_activation (Activa  (None, 14, 14, 864)          0         ['block5a_bn[0][0]']
 tion)

 block5a_se_squeeze (Global  (None, 864)                  0         ['block5a_activation[0][0]']
 AveragePooling2D)

 block5a_se_reshape (Reshap  (None, 1, 1, 864)            0         ['block5a_se_squeeze[0][0]']
 e)

 block5a_se_reduce (Conv2D)  (None, 1, 1, 36)             31140     ['block5a_se_reshape[0][0]']

 block5a_se_expand (Conv2D)  (None, 1, 1, 864)            31968     ['block5a_se_reduce[0][0]']

 block5a_se_excite (Multipl  (None, 14, 14, 864)          0         ['block5a_activation[0][0]',
 y)                                                                  'block5a_se_expand[0][0]']

 block5a_project_conv (Conv  (None, 14, 14, 200)          172800    ['block5a_se_excite[0][0]']
 2D)

 block5a_project_bn (BatchN  (None, 14, 14, 200)          800       ['block5a_project_conv[0][0]']
 ormalization)

 block5b_expand_conv (Conv2  (None, 14, 14, 1200)         240000    ['block5a_project_bn[0][0]']
 D)

 block5b_expand_bn (BatchNo  (None, 14, 14, 1200)         4800      ['block5b_expand_conv[0][0]']
 rmalization)

 block5b_expand_activation   (None, 14, 14, 1200)         0         ['block5b_expand_bn[0][0]']
 (Activation)

 block5b_dwconv (DepthwiseC  (None, 14, 14, 1200)         30000     ['block5b_expand_activation[0]
 onv2D)                                                             [0]']

 block5b_bn (BatchNormaliza  (None, 14, 14, 1200)         4800      ['block5b_dwconv[0][0]']
 tion)

 block5b_activation (Activa  (None, 14, 14, 1200)         0         ['block5b_bn[0][0]']
 tion)

 block5b_se_squeeze (Global  (None, 1200)                 0         ['block5b_activation[0][0]']
 AveragePooling2D)

 block5b_se_reshape (Reshap  (None, 1, 1, 1200)           0         ['block5b_se_squeeze[0][0]']
 e)

 block5b_se_reduce (Conv2D)  (None, 1, 1, 50)             60050     ['block5b_se_reshape[0][0]']

 block5b_se_expand (Conv2D)  (None, 1, 1, 1200)           61200     ['block5b_se_reduce[0][0]']

 block5b_se_excite (Multipl  (None, 14, 14, 1200)         0         ['block5b_activation[0][0]',
 y)                                                                  'block5b_se_expand[0][0]']

 block5b_project_conv (Conv  (None, 14, 14, 200)          240000    ['block5b_se_excite[0][0]']
 2D)

 block5b_project_bn (BatchN  (None, 14, 14, 200)          800       ['block5b_project_conv[0][0]']
 ormalization)

 block5b_drop (Dropout)      (None, 14, 14, 200)          0         ['block5b_project_bn[0][0]']

 block5b_add (Add)           (None, 14, 14, 200)          0         ['block5b_drop[0][0]',
                                                                     'block5a_project_bn[0][0]']

 block5c_expand_conv (Conv2  (None, 14, 14, 1200)         240000    ['block5b_add[0][0]']
 D)

 block5c_expand_bn (BatchNo  (None, 14, 14, 1200)         4800      ['block5c_expand_conv[0][0]']
 rmalization)

 block5c_expand_activation   (None, 14, 14, 1200)         0         ['block5c_expand_bn[0][0]']
 (Activation)

 block5c_dwconv (DepthwiseC  (None, 14, 14, 1200)         30000     ['block5c_expand_activation[0]
 onv2D)                                                             [0]']

 block5c_bn (BatchNormaliza  (None, 14, 14, 1200)         4800      ['block5c_dwconv[0][0]']
 tion)

 block5c_activation (Activa  (None, 14, 14, 1200)         0         ['block5c_bn[0][0]']
 tion)

 block5c_se_squeeze (Global  (None, 1200)                 0         ['block5c_activation[0][0]']
 AveragePooling2D)

 block5c_se_reshape (Reshap  (None, 1, 1, 1200)           0         ['block5c_se_squeeze[0][0]']
 e)

 block5c_se_reduce (Conv2D)  (None, 1, 1, 50)             60050     ['block5c_se_reshape[0][0]']

 block5c_se_expand (Conv2D)  (None, 1, 1, 1200)           61200     ['block5c_se_reduce[0][0]']

 block5c_se_excite (Multipl  (None, 14, 14, 1200)         0         ['block5c_activation[0][0]',
 y)                                                                  'block5c_se_expand[0][0]']

 block5c_project_conv (Conv  (None, 14, 14, 200)          240000    ['block5c_se_excite[0][0]']
 2D)

 block5c_project_bn (BatchN  (None, 14, 14, 200)          800       ['block5c_project_conv[0][0]']
 ormalization)

 block5c_drop (Dropout)      (None, 14, 14, 200)          0         ['block5c_project_bn[0][0]']

 block5c_add (Add)           (None, 14, 14, 200)          0         ['block5c_drop[0][0]',
                                                                     'block5b_add[0][0]']

 block5d_expand_conv (Conv2  (None, 14, 14, 1200)         240000    ['block5c_add[0][0]']
 D)

 block5d_expand_bn (BatchNo  (None, 14, 14, 1200)         4800      ['block5d_expand_conv[0][0]']
 rmalization)

 block5d_expand_activation   (None, 14, 14, 1200)         0         ['block5d_expand_bn[0][0]']
 (Activation)

 block5d_dwconv (DepthwiseC  (None, 14, 14, 1200)         30000     ['block5d_expand_activation[0]
 onv2D)                                                             [0]']

 block5d_bn (BatchNormaliza  (None, 14, 14, 1200)         4800      ['block5d_dwconv[0][0]']
 tion)

 block5d_activation (Activa  (None, 14, 14, 1200)         0         ['block5d_bn[0][0]']
 tion)

 block5d_se_squeeze (Global  (None, 1200)                 0         ['block5d_activation[0][0]']
 AveragePooling2D)

 block5d_se_reshape (Reshap  (None, 1, 1, 1200)           0         ['block5d_se_squeeze[0][0]']
 e)

 block5d_se_reduce (Conv2D)  (None, 1, 1, 50)             60050     ['block5d_se_reshape[0][0]']

 block5d_se_expand (Conv2D)  (None, 1, 1, 1200)           61200     ['block5d_se_reduce[0][0]']

 block5d_se_excite (Multipl  (None, 14, 14, 1200)         0         ['block5d_activation[0][0]',
 y)                                                                  'block5d_se_expand[0][0]']

 block5d_project_conv (Conv  (None, 14, 14, 200)          240000    ['block5d_se_excite[0][0]']
 2D)

 block5d_project_bn (BatchN  (None, 14, 14, 200)          800       ['block5d_project_conv[0][0]']
 ormalization)

 block5d_drop (Dropout)      (None, 14, 14, 200)          0         ['block5d_project_bn[0][0]']

 block5d_add (Add)           (None, 14, 14, 200)          0         ['block5d_drop[0][0]',
                                                                     'block5c_add[0][0]']

 block5e_expand_conv (Conv2  (None, 14, 14, 1200)         240000    ['block5d_add[0][0]']
 D)

 block5e_expand_bn (BatchNo  (None, 14, 14, 1200)         4800      ['block5e_expand_conv[0][0]']
 rmalization)

 block5e_expand_activation   (None, 14, 14, 1200)         0         ['block5e_expand_bn[0][0]']
 (Activation)

 block5e_dwconv (DepthwiseC  (None, 14, 14, 1200)         30000     ['block5e_expand_activation[0]
 onv2D)                                                             [0]']

 block5e_bn (BatchNormaliza  (None, 14, 14, 1200)         4800      ['block5e_dwconv[0][0]']
 tion)

 block5e_activation (Activa  (None, 14, 14, 1200)         0         ['block5e_bn[0][0]']
 tion)

 block5e_se_squeeze (Global  (None, 1200)                 0         ['block5e_activation[0][0]']
 AveragePooling2D)

 block5e_se_reshape (Reshap  (None, 1, 1, 1200)           0         ['block5e_se_squeeze[0][0]']
 e)

 block5e_se_reduce (Conv2D)  (None, 1, 1, 50)             60050     ['block5e_se_reshape[0][0]']

 block5e_se_expand (Conv2D)  (None, 1, 1, 1200)           61200     ['block5e_se_reduce[0][0]']

 block5e_se_excite (Multipl  (None, 14, 14, 1200)         0         ['block5e_activation[0][0]',
 y)                                                                  'block5e_se_expand[0][0]']

 block5e_project_conv (Conv  (None, 14, 14, 200)          240000    ['block5e_se_excite[0][0]']
 2D)

 block5e_project_bn (BatchN  (None, 14, 14, 200)          800       ['block5e_project_conv[0][0]']
 ormalization)

 block5e_drop (Dropout)      (None, 14, 14, 200)          0         ['block5e_project_bn[0][0]']

 block5e_add (Add)           (None, 14, 14, 200)          0         ['block5e_drop[0][0]',
                                                                     'block5d_add[0][0]']

 block5f_expand_conv (Conv2  (None, 14, 14, 1200)         240000    ['block5e_add[0][0]']
 D)

 block5f_expand_bn (BatchNo  (None, 14, 14, 1200)         4800      ['block5f_expand_conv[0][0]']
 rmalization)

 block5f_expand_activation   (None, 14, 14, 1200)         0         ['block5f_expand_bn[0][0]']
 (Activation)

 block5f_dwconv (DepthwiseC  (None, 14, 14, 1200)         30000     ['block5f_expand_activation[0]
 onv2D)                                                             [0]']

 block5f_bn (BatchNormaliza  (None, 14, 14, 1200)         4800      ['block5f_dwconv[0][0]']
 tion)

 block5f_activation (Activa  (None, 14, 14, 1200)         0         ['block5f_bn[0][0]']
 tion)

 block5f_se_squeeze (Global  (None, 1200)                 0         ['block5f_activation[0][0]']
 AveragePooling2D)

 block5f_se_reshape (Reshap  (None, 1, 1, 1200)           0         ['block5f_se_squeeze[0][0]']
 e)

 block5f_se_reduce (Conv2D)  (None, 1, 1, 50)             60050     ['block5f_se_reshape[0][0]']

 block5f_se_expand (Conv2D)  (None, 1, 1, 1200)           61200     ['block5f_se_reduce[0][0]']

 block5f_se_excite (Multipl  (None, 14, 14, 1200)         0         ['block5f_activation[0][0]',
 y)                                                                  'block5f_se_expand[0][0]']

 block5f_project_conv (Conv  (None, 14, 14, 200)          240000    ['block5f_se_excite[0][0]']
 2D)

 block5f_project_bn (BatchN  (None, 14, 14, 200)          800       ['block5f_project_conv[0][0]']
 ormalization)

 block5f_drop (Dropout)      (None, 14, 14, 200)          0         ['block5f_project_bn[0][0]']

 block5f_add (Add)           (None, 14, 14, 200)          0         ['block5f_drop[0][0]',
                                                                     'block5e_add[0][0]']

 block5g_expand_conv (Conv2  (None, 14, 14, 1200)         240000    ['block5f_add[0][0]']
 D)

 block5g_expand_bn (BatchNo  (None, 14, 14, 1200)         4800      ['block5g_expand_conv[0][0]']
 rmalization)

 block5g_expand_activation   (None, 14, 14, 1200)         0         ['block5g_expand_bn[0][0]']
 (Activation)

 block5g_dwconv (DepthwiseC  (None, 14, 14, 1200)         30000     ['block5g_expand_activation[0]
 onv2D)                                                             [0]']

 block5g_bn (BatchNormaliza  (None, 14, 14, 1200)         4800      ['block5g_dwconv[0][0]']
 tion)

 block5g_activation (Activa  (None, 14, 14, 1200)         0         ['block5g_bn[0][0]']
 tion)

 block5g_se_squeeze (Global  (None, 1200)                 0         ['block5g_activation[0][0]']
 AveragePooling2D)

 block5g_se_reshape (Reshap  (None, 1, 1, 1200)           0         ['block5g_se_squeeze[0][0]']
 e)

 block5g_se_reduce (Conv2D)  (None, 1, 1, 50)             60050     ['block5g_se_reshape[0][0]']

 block5g_se_expand (Conv2D)  (None, 1, 1, 1200)           61200     ['block5g_se_reduce[0][0]']

 block5g_se_excite (Multipl  (None, 14, 14, 1200)         0         ['block5g_activation[0][0]',
 y)                                                                  'block5g_se_expand[0][0]']

 block5g_project_conv (Conv  (None, 14, 14, 200)          240000    ['block5g_se_excite[0][0]']
 2D)

 block5g_project_bn (BatchN  (None, 14, 14, 200)          800       ['block5g_project_conv[0][0]']
 ormalization)

 block5g_drop (Dropout)      (None, 14, 14, 200)          0         ['block5g_project_bn[0][0]']

 block5g_add (Add)           (None, 14, 14, 200)          0         ['block5g_drop[0][0]',
                                                                     'block5f_add[0][0]']

 block5h_expand_conv (Conv2  (None, 14, 14, 1200)         240000    ['block5g_add[0][0]']
 D)

 block5h_expand_bn (BatchNo  (None, 14, 14, 1200)         4800      ['block5h_expand_conv[0][0]']
 rmalization)

 block5h_expand_activation   (None, 14, 14, 1200)         0         ['block5h_expand_bn[0][0]']
 (Activation)

 block5h_dwconv (DepthwiseC  (None, 14, 14, 1200)         30000     ['block5h_expand_activation[0]
 onv2D)                                                             [0]']

 block5h_bn (BatchNormaliza  (None, 14, 14, 1200)         4800      ['block5h_dwconv[0][0]']
 tion)

 block5h_activation (Activa  (None, 14, 14, 1200)         0         ['block5h_bn[0][0]']
 tion)

 block5h_se_squeeze (Global  (None, 1200)                 0         ['block5h_activation[0][0]']
 AveragePooling2D)

 block5h_se_reshape (Reshap  (None, 1, 1, 1200)           0         ['block5h_se_squeeze[0][0]']
 e)

 block5h_se_reduce (Conv2D)  (None, 1, 1, 50)             60050     ['block5h_se_reshape[0][0]']

 block5h_se_expand (Conv2D)  (None, 1, 1, 1200)           61200     ['block5h_se_reduce[0][0]']

 block5h_se_excite (Multipl  (None, 14, 14, 1200)         0         ['block5h_activation[0][0]',
 y)                                                                  'block5h_se_expand[0][0]']

 block5h_project_conv (Conv  (None, 14, 14, 200)          240000    ['block5h_se_excite[0][0]']
 2D)

 block5h_project_bn (BatchN  (None, 14, 14, 200)          800       ['block5h_project_conv[0][0]']
 ormalization)

 block5h_drop (Dropout)      (None, 14, 14, 200)          0         ['block5h_project_bn[0][0]']

 block5h_add (Add)           (None, 14, 14, 200)          0         ['block5h_drop[0][0]',
                                                                     'block5g_add[0][0]']

 block6a_expand_conv (Conv2  (None, 14, 14, 1200)         240000    ['block5h_add[0][0]']
 D)

 block6a_expand_bn (BatchNo  (None, 14, 14, 1200)         4800      ['block6a_expand_conv[0][0]']
 rmalization)

 block6a_expand_activation   (None, 14, 14, 1200)         0         ['block6a_expand_bn[0][0]']
 (Activation)

 block6a_dwconv_pad (ZeroPa  (None, 17, 17, 1200)         0         ['block6a_expand_activation[0]
 dding2D)                                                           [0]']

 block6a_dwconv (DepthwiseC  (None, 7, 7, 1200)           30000     ['block6a_dwconv_pad[0][0]']
 onv2D)

 block6a_bn (BatchNormaliza  (None, 7, 7, 1200)           4800      ['block6a_dwconv[0][0]']
 tion)

 block6a_activation (Activa  (None, 7, 7, 1200)           0         ['block6a_bn[0][0]']
 tion)

 block6a_se_squeeze (Global  (None, 1200)                 0         ['block6a_activation[0][0]']
 AveragePooling2D)

 block6a_se_reshape (Reshap  (None, 1, 1, 1200)           0         ['block6a_se_squeeze[0][0]']
 e)

 block6a_se_reduce (Conv2D)  (None, 1, 1, 50)             60050     ['block6a_se_reshape[0][0]']

 block6a_se_expand (Conv2D)  (None, 1, 1, 1200)           61200     ['block6a_se_reduce[0][0]']

 block6a_se_excite (Multipl  (None, 7, 7, 1200)           0         ['block6a_activation[0][0]',
 y)                                                                  'block6a_se_expand[0][0]']

 block6a_project_conv (Conv  (None, 7, 7, 344)            412800    ['block6a_se_excite[0][0]']
 2D)

 block6a_project_bn (BatchN  (None, 7, 7, 344)            1376      ['block6a_project_conv[0][0]']
 ormalization)

 block6b_expand_conv (Conv2  (None, 7, 7, 2064)           710016    ['block6a_project_bn[0][0]']
 D)

 block6b_expand_bn (BatchNo  (None, 7, 7, 2064)           8256      ['block6b_expand_conv[0][0]']
 rmalization)

 block6b_expand_activation   (None, 7, 7, 2064)           0         ['block6b_expand_bn[0][0]']
 (Activation)

 block6b_dwconv (DepthwiseC  (None, 7, 7, 2064)           51600     ['block6b_expand_activation[0]
 onv2D)                                                             [0]']

 block6b_bn (BatchNormaliza  (None, 7, 7, 2064)           8256      ['block6b_dwconv[0][0]']
 tion)

 block6b_activation (Activa  (None, 7, 7, 2064)           0         ['block6b_bn[0][0]']
 tion)

 block6b_se_squeeze (Global  (None, 2064)                 0         ['block6b_activation[0][0]']
 AveragePooling2D)

 block6b_se_reshape (Reshap  (None, 1, 1, 2064)           0         ['block6b_se_squeeze[0][0]']
 e)

 block6b_se_reduce (Conv2D)  (None, 1, 1, 86)             177590    ['block6b_se_reshape[0][0]']

 block6b_se_expand (Conv2D)  (None, 1, 1, 2064)           179568    ['block6b_se_reduce[0][0]']

 block6b_se_excite (Multipl  (None, 7, 7, 2064)           0         ['block6b_activation[0][0]',
 y)                                                                  'block6b_se_expand[0][0]']

 block6b_project_conv (Conv  (None, 7, 7, 344)            710016    ['block6b_se_excite[0][0]']
 2D)

 block6b_project_bn (BatchN  (None, 7, 7, 344)            1376      ['block6b_project_conv[0][0]']
 ormalization)

 block6b_drop (Dropout)      (None, 7, 7, 344)            0         ['block6b_project_bn[0][0]']

 block6b_add (Add)           (None, 7, 7, 344)            0         ['block6b_drop[0][0]',
                                                                     'block6a_project_bn[0][0]']

 block6c_expand_conv (Conv2  (None, 7, 7, 2064)           710016    ['block6b_add[0][0]']
 D)

 block6c_expand_bn (BatchNo  (None, 7, 7, 2064)           8256      ['block6c_expand_conv[0][0]']
 rmalization)

 block6c_expand_activation   (None, 7, 7, 2064)           0         ['block6c_expand_bn[0][0]']
 (Activation)

 block6c_dwconv (DepthwiseC  (None, 7, 7, 2064)           51600     ['block6c_expand_activation[0]
 onv2D)                                                             [0]']

 block6c_bn (BatchNormaliza  (None, 7, 7, 2064)           8256      ['block6c_dwconv[0][0]']
 tion)

 block6c_activation (Activa  (None, 7, 7, 2064)           0         ['block6c_bn[0][0]']
 tion)

 block6c_se_squeeze (Global  (None, 2064)                 0         ['block6c_activation[0][0]']
 AveragePooling2D)

 block6c_se_reshape (Reshap  (None, 1, 1, 2064)           0         ['block6c_se_squeeze[0][0]']
 e)

 block6c_se_reduce (Conv2D)  (None, 1, 1, 86)             177590    ['block6c_se_reshape[0][0]']

 block6c_se_expand (Conv2D)  (None, 1, 1, 2064)           179568    ['block6c_se_reduce[0][0]']

 block6c_se_excite (Multipl  (None, 7, 7, 2064)           0         ['block6c_activation[0][0]',
 y)                                                                  'block6c_se_expand[0][0]']

 block6c_project_conv (Conv  (None, 7, 7, 344)            710016    ['block6c_se_excite[0][0]']
 2D)

 block6c_project_bn (BatchN  (None, 7, 7, 344)            1376      ['block6c_project_conv[0][0]']
 ormalization)

 block6c_drop (Dropout)      (None, 7, 7, 344)            0         ['block6c_project_bn[0][0]']

 block6c_add (Add)           (None, 7, 7, 344)            0         ['block6c_drop[0][0]',
                                                                     'block6b_add[0][0]']

 block6d_expand_conv (Conv2  (None, 7, 7, 2064)           710016    ['block6c_add[0][0]']
 D)

 block6d_expand_bn (BatchNo  (None, 7, 7, 2064)           8256      ['block6d_expand_conv[0][0]']
 rmalization)

 block6d_expand_activation   (None, 7, 7, 2064)           0         ['block6d_expand_bn[0][0]']
 (Activation)

 block6d_dwconv (DepthwiseC  (None, 7, 7, 2064)           51600     ['block6d_expand_activation[0]
 onv2D)                                                             [0]']

 block6d_bn (BatchNormaliza  (None, 7, 7, 2064)           8256      ['block6d_dwconv[0][0]']
 tion)

 block6d_activation (Activa  (None, 7, 7, 2064)           0         ['block6d_bn[0][0]']
 tion)

 block6d_se_squeeze (Global  (None, 2064)                 0         ['block6d_activation[0][0]']
 AveragePooling2D)

 block6d_se_reshape (Reshap  (None, 1, 1, 2064)           0         ['block6d_se_squeeze[0][0]']
 e)

 block6d_se_reduce (Conv2D)  (None, 1, 1, 86)             177590    ['block6d_se_reshape[0][0]']

 block6d_se_expand (Conv2D)  (None, 1, 1, 2064)           179568    ['block6d_se_reduce[0][0]']

 block6d_se_excite (Multipl  (None, 7, 7, 2064)           0         ['block6d_activation[0][0]',
 y)                                                                  'block6d_se_expand[0][0]']

 block6d_project_conv (Conv  (None, 7, 7, 344)            710016    ['block6d_se_excite[0][0]']
 2D)

 block6d_project_bn (BatchN  (None, 7, 7, 344)            1376      ['block6d_project_conv[0][0]']
 ormalization)

 block6d_drop (Dropout)      (None, 7, 7, 344)            0         ['block6d_project_bn[0][0]']

 block6d_add (Add)           (None, 7, 7, 344)            0         ['block6d_drop[0][0]',
                                                                     'block6c_add[0][0]']

 block6e_expand_conv (Conv2  (None, 7, 7, 2064)           710016    ['block6d_add[0][0]']
 D)

 block6e_expand_bn (BatchNo  (None, 7, 7, 2064)           8256      ['block6e_expand_conv[0][0]']
 rmalization)

 block6e_expand_activation   (None, 7, 7, 2064)           0         ['block6e_expand_bn[0][0]']
 (Activation)

 block6e_dwconv (DepthwiseC  (None, 7, 7, 2064)           51600     ['block6e_expand_activation[0]
 onv2D)                                                             [0]']

 block6e_bn (BatchNormaliza  (None, 7, 7, 2064)           8256      ['block6e_dwconv[0][0]']
 tion)

 block6e_activation (Activa  (None, 7, 7, 2064)           0         ['block6e_bn[0][0]']
 tion)

 block6e_se_squeeze (Global  (None, 2064)                 0         ['block6e_activation[0][0]']
 AveragePooling2D)

 block6e_se_reshape (Reshap  (None, 1, 1, 2064)           0         ['block6e_se_squeeze[0][0]']
 e)

 block6e_se_reduce (Conv2D)  (None, 1, 1, 86)             177590    ['block6e_se_reshape[0][0]']

 block6e_se_expand (Conv2D)  (None, 1, 1, 2064)           179568    ['block6e_se_reduce[0][0]']

 block6e_se_excite (Multipl  (None, 7, 7, 2064)           0         ['block6e_activation[0][0]',
 y)                                                                  'block6e_se_expand[0][0]']

 block6e_project_conv (Conv  (None, 7, 7, 344)            710016    ['block6e_se_excite[0][0]']
 2D)

 block6e_project_bn (BatchN  (None, 7, 7, 344)            1376      ['block6e_project_conv[0][0]']
 ormalization)

 block6e_drop (Dropout)      (None, 7, 7, 344)            0         ['block6e_project_bn[0][0]']

 block6e_add (Add)           (None, 7, 7, 344)            0         ['block6e_drop[0][0]',
                                                                     'block6d_add[0][0]']

 block6f_expand_conv (Conv2  (None, 7, 7, 2064)           710016    ['block6e_add[0][0]']
 D)

 block6f_expand_bn (BatchNo  (None, 7, 7, 2064)           8256      ['block6f_expand_conv[0][0]']
 rmalization)

 block6f_expand_activation   (None, 7, 7, 2064)           0         ['block6f_expand_bn[0][0]']
 (Activation)

 block6f_dwconv (DepthwiseC  (None, 7, 7, 2064)           51600     ['block6f_expand_activation[0]
 onv2D)                                                             [0]']

 block6f_bn (BatchNormaliza  (None, 7, 7, 2064)           8256      ['block6f_dwconv[0][0]']
 tion)

 block6f_activation (Activa  (None, 7, 7, 2064)           0         ['block6f_bn[0][0]']
 tion)

 block6f_se_squeeze (Global  (None, 2064)                 0         ['block6f_activation[0][0]']
 AveragePooling2D)

 block6f_se_reshape (Reshap  (None, 1, 1, 2064)           0         ['block6f_se_squeeze[0][0]']
 e)

 block6f_se_reduce (Conv2D)  (None, 1, 1, 86)             177590    ['block6f_se_reshape[0][0]']

 block6f_se_expand (Conv2D)  (None, 1, 1, 2064)           179568    ['block6f_se_reduce[0][0]']

 block6f_se_excite (Multipl  (None, 7, 7, 2064)           0         ['block6f_activation[0][0]',
 y)                                                                  'block6f_se_expand[0][0]']

 block6f_project_conv (Conv  (None, 7, 7, 344)            710016    ['block6f_se_excite[0][0]']
 2D)

 block6f_project_bn (BatchN  (None, 7, 7, 344)            1376      ['block6f_project_conv[0][0]']
 ormalization)

 block6f_drop (Dropout)      (None, 7, 7, 344)            0         ['block6f_project_bn[0][0]']

 block6f_add (Add)           (None, 7, 7, 344)            0         ['block6f_drop[0][0]',
                                                                     'block6e_add[0][0]']

 block6g_expand_conv (Conv2  (None, 7, 7, 2064)           710016    ['block6f_add[0][0]']
 D)

 block6g_expand_bn (BatchNo  (None, 7, 7, 2064)           8256      ['block6g_expand_conv[0][0]']
 rmalization)

 block6g_expand_activation   (None, 7, 7, 2064)           0         ['block6g_expand_bn[0][0]']
 (Activation)

 block6g_dwconv (DepthwiseC  (None, 7, 7, 2064)           51600     ['block6g_expand_activation[0]
 onv2D)                                                             [0]']

 block6g_bn (BatchNormaliza  (None, 7, 7, 2064)           8256      ['block6g_dwconv[0][0]']
 tion)

 block6g_activation (Activa  (None, 7, 7, 2064)           0         ['block6g_bn[0][0]']
 tion)

 block6g_se_squeeze (Global  (None, 2064)                 0         ['block6g_activation[0][0]']
 AveragePooling2D)

 block6g_se_reshape (Reshap  (None, 1, 1, 2064)           0         ['block6g_se_squeeze[0][0]']
 e)

 block6g_se_reduce (Conv2D)  (None, 1, 1, 86)             177590    ['block6g_se_reshape[0][0]']

 block6g_se_expand (Conv2D)  (None, 1, 1, 2064)           179568    ['block6g_se_reduce[0][0]']

 block6g_se_excite (Multipl  (None, 7, 7, 2064)           0         ['block6g_activation[0][0]',
 y)                                                                  'block6g_se_expand[0][0]']

 block6g_project_conv (Conv  (None, 7, 7, 344)            710016    ['block6g_se_excite[0][0]']
 2D)

 block6g_project_bn (BatchN  (None, 7, 7, 344)            1376      ['block6g_project_conv[0][0]']
 ormalization)

 block6g_drop (Dropout)      (None, 7, 7, 344)            0         ['block6g_project_bn[0][0]']

 block6g_add (Add)           (None, 7, 7, 344)            0         ['block6g_drop[0][0]',
                                                                     'block6f_add[0][0]']

 block6h_expand_conv (Conv2  (None, 7, 7, 2064)           710016    ['block6g_add[0][0]']
 D)

 block6h_expand_bn (BatchNo  (None, 7, 7, 2064)           8256      ['block6h_expand_conv[0][0]']
 rmalization)

 block6h_expand_activation   (None, 7, 7, 2064)           0         ['block6h_expand_bn[0][0]']
 (Activation)

 block6h_dwconv (DepthwiseC  (None, 7, 7, 2064)           51600     ['block6h_expand_activation[0]
 onv2D)                                                             [0]']

 block6h_bn (BatchNormaliza  (None, 7, 7, 2064)           8256      ['block6h_dwconv[0][0]']
 tion)

 block6h_activation (Activa  (None, 7, 7, 2064)           0         ['block6h_bn[0][0]']
 tion)

 block6h_se_squeeze (Global  (None, 2064)                 0         ['block6h_activation[0][0]']
 AveragePooling2D)

 block6h_se_reshape (Reshap  (None, 1, 1, 2064)           0         ['block6h_se_squeeze[0][0]']
 e)

 block6h_se_reduce (Conv2D)  (None, 1, 1, 86)             177590    ['block6h_se_reshape[0][0]']

 block6h_se_expand (Conv2D)  (None, 1, 1, 2064)           179568    ['block6h_se_reduce[0][0]']

 block6h_se_excite (Multipl  (None, 7, 7, 2064)           0         ['block6h_activation[0][0]',
 y)                                                                  'block6h_se_expand[0][0]']

 block6h_project_conv (Conv  (None, 7, 7, 344)            710016    ['block6h_se_excite[0][0]']
 2D)

 block6h_project_bn (BatchN  (None, 7, 7, 344)            1376      ['block6h_project_conv[0][0]']
 ormalization)

 block6h_drop (Dropout)      (None, 7, 7, 344)            0         ['block6h_project_bn[0][0]']

 block6h_add (Add)           (None, 7, 7, 344)            0         ['block6h_drop[0][0]',
                                                                     'block6g_add[0][0]']

 block6i_expand_conv (Conv2  (None, 7, 7, 2064)           710016    ['block6h_add[0][0]']
 D)

 block6i_expand_bn (BatchNo  (None, 7, 7, 2064)           8256      ['block6i_expand_conv[0][0]']
 rmalization)

 block6i_expand_activation   (None, 7, 7, 2064)           0         ['block6i_expand_bn[0][0]']
 (Activation)

 block6i_dwconv (DepthwiseC  (None, 7, 7, 2064)           51600     ['block6i_expand_activation[0]
 onv2D)                                                             [0]']

 block6i_bn (BatchNormaliza  (None, 7, 7, 2064)           8256      ['block6i_dwconv[0][0]']
 tion)

 block6i_activation (Activa  (None, 7, 7, 2064)           0         ['block6i_bn[0][0]']
 tion)

 block6i_se_squeeze (Global  (None, 2064)                 0         ['block6i_activation[0][0]']
 AveragePooling2D)

 block6i_se_reshape (Reshap  (None, 1, 1, 2064)           0         ['block6i_se_squeeze[0][0]']
 e)

 block6i_se_reduce (Conv2D)  (None, 1, 1, 86)             177590    ['block6i_se_reshape[0][0]']

 block6i_se_expand (Conv2D)  (None, 1, 1, 2064)           179568    ['block6i_se_reduce[0][0]']

 block6i_se_excite (Multipl  (None, 7, 7, 2064)           0         ['block6i_activation[0][0]',
 y)                                                                  'block6i_se_expand[0][0]']

 block6i_project_conv (Conv  (None, 7, 7, 344)            710016    ['block6i_se_excite[0][0]']
 2D)

 block6i_project_bn (BatchN  (None, 7, 7, 344)            1376      ['block6i_project_conv[0][0]']
 ormalization)

 block6i_drop (Dropout)      (None, 7, 7, 344)            0         ['block6i_project_bn[0][0]']

 block6i_add (Add)           (None, 7, 7, 344)            0         ['block6i_drop[0][0]',
                                                                     'block6h_add[0][0]']

 block6j_expand_conv (Conv2  (None, 7, 7, 2064)           710016    ['block6i_add[0][0]']
 D)

 block6j_expand_bn (BatchNo  (None, 7, 7, 2064)           8256      ['block6j_expand_conv[0][0]']
 rmalization)

 block6j_expand_activation   (None, 7, 7, 2064)           0         ['block6j_expand_bn[0][0]']
 (Activation)

 block6j_dwconv (DepthwiseC  (None, 7, 7, 2064)           51600     ['block6j_expand_activation[0]
 onv2D)                                                             [0]']

 block6j_bn (BatchNormaliza  (None, 7, 7, 2064)           8256      ['block6j_dwconv[0][0]']
 tion)

 block6j_activation (Activa  (None, 7, 7, 2064)           0         ['block6j_bn[0][0]']
 tion)

 block6j_se_squeeze (Global  (None, 2064)                 0         ['block6j_activation[0][0]']
 AveragePooling2D)

 block6j_se_reshape (Reshap  (None, 1, 1, 2064)           0         ['block6j_se_squeeze[0][0]']
 e)

 block6j_se_reduce (Conv2D)  (None, 1, 1, 86)             177590    ['block6j_se_reshape[0][0]']

 block6j_se_expand (Conv2D)  (None, 1, 1, 2064)           179568    ['block6j_se_reduce[0][0]']

 block6j_se_excite (Multipl  (None, 7, 7, 2064)           0         ['block6j_activation[0][0]',
 y)                                                                  'block6j_se_expand[0][0]']

 block6j_project_conv (Conv  (None, 7, 7, 344)            710016    ['block6j_se_excite[0][0]']
 2D)

 block6j_project_bn (BatchN  (None, 7, 7, 344)            1376      ['block6j_project_conv[0][0]']
 ormalization)

 block6j_drop (Dropout)      (None, 7, 7, 344)            0         ['block6j_project_bn[0][0]']

 block6j_add (Add)           (None, 7, 7, 344)            0         ['block6j_drop[0][0]',
                                                                     'block6i_add[0][0]']

 block6k_expand_conv (Conv2  (None, 7, 7, 2064)           710016    ['block6j_add[0][0]']
 D)

 block6k_expand_bn (BatchNo  (None, 7, 7, 2064)           8256      ['block6k_expand_conv[0][0]']
 rmalization)

 block6k_expand_activation   (None, 7, 7, 2064)           0         ['block6k_expand_bn[0][0]']
 (Activation)

 block6k_dwconv (DepthwiseC  (None, 7, 7, 2064)           51600     ['block6k_expand_activation[0]
 onv2D)                                                             [0]']

 block6k_bn (BatchNormaliza  (None, 7, 7, 2064)           8256      ['block6k_dwconv[0][0]']
 tion)

 block6k_activation (Activa  (None, 7, 7, 2064)           0         ['block6k_bn[0][0]']
 tion)

 block6k_se_squeeze (Global  (None, 2064)                 0         ['block6k_activation[0][0]']
 AveragePooling2D)

 block6k_se_reshape (Reshap  (None, 1, 1, 2064)           0         ['block6k_se_squeeze[0][0]']
 e)

 block6k_se_reduce (Conv2D)  (None, 1, 1, 86)             177590    ['block6k_se_reshape[0][0]']

 block6k_se_expand (Conv2D)  (None, 1, 1, 2064)           179568    ['block6k_se_reduce[0][0]']

 block6k_se_excite (Multipl  (None, 7, 7, 2064)           0         ['block6k_activation[0][0]',
 y)                                                                  'block6k_se_expand[0][0]']

 block6k_project_conv (Conv  (None, 7, 7, 344)            710016    ['block6k_se_excite[0][0]']
 2D)

 block6k_project_bn (BatchN  (None, 7, 7, 344)            1376      ['block6k_project_conv[0][0]']
 ormalization)

 block6k_drop (Dropout)      (None, 7, 7, 344)            0         ['block6k_project_bn[0][0]']

 block6k_add (Add)           (None, 7, 7, 344)            0         ['block6k_drop[0][0]',
                                                                     'block6j_add[0][0]']

 block7a_expand_conv (Conv2  (None, 7, 7, 2064)           710016    ['block6k_add[0][0]']
 D)

 block7a_expand_bn (BatchNo  (None, 7, 7, 2064)           8256      ['block7a_expand_conv[0][0]']
 rmalization)

 block7a_expand_activation   (None, 7, 7, 2064)           0         ['block7a_expand_bn[0][0]']
 (Activation)

 block7a_dwconv (DepthwiseC  (None, 7, 7, 2064)           18576     ['block7a_expand_activation[0]
 onv2D)                                                             [0]']

 block7a_bn (BatchNormaliza  (None, 7, 7, 2064)           8256      ['block7a_dwconv[0][0]']
 tion)

 block7a_activation (Activa  (None, 7, 7, 2064)           0         ['block7a_bn[0][0]']
 tion)

 block7a_se_squeeze (Global  (None, 2064)                 0         ['block7a_activation[0][0]']
 AveragePooling2D)

 block7a_se_reshape (Reshap  (None, 1, 1, 2064)           0         ['block7a_se_squeeze[0][0]']
 e)

 block7a_se_reduce (Conv2D)  (None, 1, 1, 86)             177590    ['block7a_se_reshape[0][0]']

 block7a_se_expand (Conv2D)  (None, 1, 1, 2064)           179568    ['block7a_se_reduce[0][0]']

 block7a_se_excite (Multipl  (None, 7, 7, 2064)           0         ['block7a_activation[0][0]',
 y)                                                                  'block7a_se_expand[0][0]']

 block7a_project_conv (Conv  (None, 7, 7, 576)            1188864   ['block7a_se_excite[0][0]']
 2D)

 block7a_project_bn (BatchN  (None, 7, 7, 576)            2304      ['block7a_project_conv[0][0]']
 ormalization)

 block7b_expand_conv (Conv2  (None, 7, 7, 3456)           1990656   ['block7a_project_bn[0][0]']
 D)

 block7b_expand_bn (BatchNo  (None, 7, 7, 3456)           13824     ['block7b_expand_conv[0][0]']
 rmalization)

 block7b_expand_activation   (None, 7, 7, 3456)           0         ['block7b_expand_bn[0][0]']
 (Activation)

 block7b_dwconv (DepthwiseC  (None, 7, 7, 3456)           31104     ['block7b_expand_activation[0]
 onv2D)                                                             [0]']

 block7b_bn (BatchNormaliza  (None, 7, 7, 3456)           13824     ['block7b_dwconv[0][0]']
 tion)

 block7b_activation (Activa  (None, 7, 7, 3456)           0         ['block7b_bn[0][0]']
 tion)

 block7b_se_squeeze (Global  (None, 3456)                 0         ['block7b_activation[0][0]']
 AveragePooling2D)

 block7b_se_reshape (Reshap  (None, 1, 1, 3456)           0         ['block7b_se_squeeze[0][0]']
 e)

 block7b_se_reduce (Conv2D)  (None, 1, 1, 144)            497808    ['block7b_se_reshape[0][0]']

 block7b_se_expand (Conv2D)  (None, 1, 1, 3456)           501120    ['block7b_se_reduce[0][0]']

 block7b_se_excite (Multipl  (None, 7, 7, 3456)           0         ['block7b_activation[0][0]',
 y)                                                                  'block7b_se_expand[0][0]']

 block7b_project_conv (Conv  (None, 7, 7, 576)            1990656   ['block7b_se_excite[0][0]']
 2D)

 block7b_project_bn (BatchN  (None, 7, 7, 576)            2304      ['block7b_project_conv[0][0]']
 ormalization)

 block7b_drop (Dropout)      (None, 7, 7, 576)            0         ['block7b_project_bn[0][0]']

 block7b_add (Add)           (None, 7, 7, 576)            0         ['block7b_drop[0][0]',
                                                                     'block7a_project_bn[0][0]']

 block7c_expand_conv (Conv2  (None, 7, 7, 3456)           1990656   ['block7b_add[0][0]']
 D)

 block7c_expand_bn (BatchNo  (None, 7, 7, 3456)           13824     ['block7c_expand_conv[0][0]']
 rmalization)

 block7c_expand_activation   (None, 7, 7, 3456)           0         ['block7c_expand_bn[0][0]']
 (Activation)

 block7c_dwconv (DepthwiseC  (None, 7, 7, 3456)           31104     ['block7c_expand_activation[0]
 onv2D)                                                             [0]']

 block7c_bn (BatchNormaliza  (None, 7, 7, 3456)           13824     ['block7c_dwconv[0][0]']
 tion)

 block7c_activation (Activa  (None, 7, 7, 3456)           0         ['block7c_bn[0][0]']
 tion)

 block7c_se_squeeze (Global  (None, 3456)                 0         ['block7c_activation[0][0]']
 AveragePooling2D)

 block7c_se_reshape (Reshap  (None, 1, 1, 3456)           0         ['block7c_se_squeeze[0][0]']
 e)

 block7c_se_reduce (Conv2D)  (None, 1, 1, 144)            497808    ['block7c_se_reshape[0][0]']

 block7c_se_expand (Conv2D)  (None, 1, 1, 3456)           501120    ['block7c_se_reduce[0][0]']

 block7c_se_excite (Multipl  (None, 7, 7, 3456)           0         ['block7c_activation[0][0]',
 y)                                                                  'block7c_se_expand[0][0]']

 block7c_project_conv (Conv  (None, 7, 7, 576)            1990656   ['block7c_se_excite[0][0]']
 2D)

 block7c_project_bn (BatchN  (None, 7, 7, 576)            2304      ['block7c_project_conv[0][0]']
 ormalization)

 block7c_drop (Dropout)      (None, 7, 7, 576)            0         ['block7c_project_bn[0][0]']

 block7c_add (Add)           (None, 7, 7, 576)            0         ['block7c_drop[0][0]',
                                                                     'block7b_add[0][0]']

 top_conv (Conv2D)           (None, 7, 7, 2304)           1327104   ['block7c_add[0][0]']

 top_bn (BatchNormalization  (None, 7, 7, 2304)           9216      ['top_conv[0][0]']
 )

 top_activation (Activation  (None, 7, 7, 2304)           0         ['top_bn[0][0]']
 )

 avg_pool (GlobalAveragePoo  (None, 2304)                 0         ['top_activation[0][0]']
 ling2D)

 dense (Dense)               (None, 24)                   55320     ['avg_pool[0][0]']

==================================================================================================
Total params: 41015463 (156.46 MB)
Trainable params: 40791024 (155.61 MB)
Non-trainable params: 224439 (876.72 KB)
__________________________________________________________________________________________________
None
WARNING:absl:`lr` is deprecated in Keras optimizer, please use `learning_rate` or use the legacy optimizer, e.g.,tf.keras.optimizers.legacy.Adam.
…
